…
56, bias=True)", "parameters": [["weight", [256, 384]], ["bias", [256]]], "output_shape": [[1382, 256]], "num_parameters": [98304, 256]}, {"name": "Hmlp.1", "id": 2576741016064, "class_name": "ReLU(inplace=True)", "parameters": [], "output_shape": [[1382, 256]], "num_parameters": []}, {"name": "Hmlp.2", "id": 2576741016304, "class_name": "Linear(in_features=256, out_features=128, bias=True)", "parameters": [["weight", [128, 256]], ["bias", [128]]], "output_shape": [[1382, 128]], "num_parameters": [32768, 128]}, {"name": "linear.0", "id": 2576741591424, "class_name": "ResidualBlock(\n  (linear1): Linear(in_features=256, out_features=512, bias=True)\n  (batch_norm1): BatchNorm1d(512, eps=1e-05, momentum=0.1, affine=True, track_running_stats=True)\n  (relu): ReLU(inplace=True)\n  (dropout): Dropout(p=0.5, inplace=False)\n  (linear2): Linear(in_features=512, out_features=384, bias=True)\n  (batch_norm2): BatchNorm1d(384, eps=1e-05, momentum=0.1, affine=True, track_running_stats=True)\n  (identity_layer): Linear(in_features=256, out_features=384, bias=True)\n)", "parameters": [["linear1.weight", [512, 256]], ["linear1.bias", [512]], ["batch_norm1.weight", [512]], ["batch_norm1.bias", [512]], ["linear2.weight", [384, 512]], ["linear2.bias", [384]], ["batch_norm2.weight", [384]], ["batch_norm2.bias", [384]], ["identity_layer.weight", [384, 256]], ["identity_layer.bias", [384]]], "output_shape": [[353792, 384]], "num_parameters": [131072, 512, 512, 512, 196608, 384, 384, 384, 98304, 384]}, {"name": "linear.1", "id": 2576741591040, "class_name": "ResidualBlock(\n  (linear1): Linear(in_features=384, out_features=256, bias=True)\n  (batch_norm1): BatchNorm1d(256, eps=1e-05, momentum=0.1, affine=True, track_running_stats=True)\n  (relu): ReLU(inplace=True)\n  (dropout): Dropout(p=0.5, inplace=False)\n  (linear2): Linear(in_features=256, out_features=128, bias=True)\n  (batch_norm2): BatchNorm1d(128, eps=1e-05, momentum=0.1, affine=True, track_running_stats=True)\n  (identity_layer): Linear(in_features=384, out_features=128, bias=True)\n)", "parameters": [["linear1.weight", [256, 384]], ["linear1.bias", [256]], ["batch_norm1.weight", [256]], ["batch_norm1.bias", [256]], ["linear2.weight", [128, 256]], ["linear2.bias", [128]], ["batch_norm2.weight", [128]], ["batch_norm2.bias", [128]], ["identity_layer.weight", [128, 384]], ["identity_layer.bias", [128]]], "output_shape": [[353792, 128]], "num_parameters": [98304, 256, 256, 256, 32768, 128, 128, 128, 49152, 128]}, {"name": "linear.2", "id": 2576741590656, "class_name": "ResidualBlock(\n  (linear1): Linear(in_features=128, out_features=64, bias=True)\n  (batch_norm1): BatchNorm1d(64, eps=1e-05, momentum=0.1, affine=True, track_running_stats=True)\n  (relu): ReLU(inplace=True)\n  (dropout): Dropout(p=0.5, inplace=False)\n  (linear2): Linear(in_features=64, out_features=32, bias=True)\n  (batch_norm2): BatchNorm1d(32, eps=1e-05, momentum=0.1, affine=True, track_running_stats=True)\n  (identity_layer): Linear(in_features=128, out_features=32, bias=True)\n)", "parameters": [["linear1.weight", [64, 128]], ["linear1.bias", [64]], ["batch_norm1.weight", [64]], ["batch_norm1.bias", [64]], ["linear2.weight", [32, 64]], ["linear2.bias", [32]], ["batch_norm2.weight", [32]], ["batch_norm2.bias", [32]], ["identity_layer.weight", [32, 128]], ["identity_layer.bias", [32]]], "output_shape": [[353792, 32]], "num_par
…
